tests/data/b2r2_l.npy (npy, 119936 bytes, 1 tensors)

array f8 [32, 468]
000000 00 d4 39 74 19 06 e5 3d 00 82 2c d0 89 64 10 3e
       1.529684661169414e-10 9.5418234485146e-10
000010 00 d2 f0 f2 5b 9a 31 3e 00 15 ff cb 07 02 50 3e
       4.09850979461313e-09 1.4908547951520645e-08
000020 00 93 29 06 d5 2f 6a 3e 00 f3 a2 d1 a1 c5 83 3e
       4.877679839614394e-08 1.4731288261971915e-07
000030 00 e8 1b 78 36 f0 9b 3e 00 a2 29 fa 5f 9e b2 3e
       4.1631357570982245e-07 1.1097581384072021e-06
000040 00 00 46 21 f7 86 c7 3e 00 2d aa ee 96 48 dc 3e
       2.8046617989718747e-06 6.743324528667204e-06
000050 80 b9 9a 8a 88 36 f0 3e 00 73 0d 93 fb c1 01 3f
       1.546194167783557e-05 3.387021059240124e-05
000060 80 a9 aa a6 11 9b 12 3f 00 3d d1 ae bb aa 22 3f
       7.097525819214044e-05 0.00014241734553131075
000070 80 65 72 47 01 f0 31 3f 00 91 6d 8b 98 c6 39 3f
       0.0002737048266197792 0.00039330696329488435
000080 80 c5 56 13 a1 15 8b bf 80 16 55 12 fc db d2 bf
       -0.013224848177602722 -0.2946767977740379
000090 20 d9 76 99 70 7a f0 bf 80 41 60 bf 95 93 e2 bf
       -1.0298925394723213 -0.5805157411396493
0000a0 00 20 f9 97 fb ba 9c 3f 00 9e 72 6c 74 10 c6 3f
       0.02805703272886717 0.17237716002749437
0000b0 00 fc 23 3e 53 da ce 3f 00 a9 a6 38 f0 e0 d1 3f
       0.24103775533873772 0.27935414821935467
0000c0 80 35 e8 ad 56 6e d2 3f 00 ec 6c f6 6c 67 d1 3f
       0.2879845331488795 0.2719375998019018
0000d0 00 ca 4e a3 0b 9f ce 3f 00 ed 07 62 2f 65 c9 3f
       0.23922868227016636 0.19840042387645695
0000e0 80 8c 1d 42 16 0a c4 3f 00 d9 de 7f 70 44 be 3f
       0.15655782917301408 0.11823180314863535
0000f0 80 ae c0 32 42 5a b5 3f 00 a8 07 e8 17 65 a0 3f
       0.08340848673895529 0.03202128131290749
000100 c0 f6 5a c7 10 66 c2 bf a0 64 53 84 fc 45 e7 bf
       -0.1437397931494413 -0.7272932610022913
000110 00 b1 8d bd 2a 9c fe bf 50 c6 06 c3 79 a9 08 c0
       -1.9131266979630368 -3.082751773494955
000120 00 ed 52 c7 fb be 08 c0 00 f0 66 e9 dd a7 fe bf
       -3.0932536670858326 -1.915983115889503
000130 40 03 4b b3 7a 0a e5 bf 00 0e c9 17 5c 2e b5 3f
       -0.6575292112175717 0.08273864346215731
000140 80 cb 10 21 37 e4 e2 3f e0 13 5b cb 39 5c f5 3f
       0.5903583188831902 1.3350160544953198
000150 d0 bb 7a 54 65 2f 03 40 d0 13 22 94 32 96 0a 40
       2.3981424903827033 3.3233386586093516
000160 68 6a 26 94 25 6c 10 40 d0 b0 2a e5 ad 53 19 40
       4.10561210140677 6.331718044977791
000170 6c 94 3d 11 71 59 27 40 f4 26 97 d1 47 25 33 40
       11.674690760390341 19.14562711658705
000180 28 95 4a 6a 2c ed 39 40 2a 31 f3 6f 49 7c 3e 40
       25.92645897217622 30.485495564339693
000190 e1 4e 27 75 0e 7e 40 40 9b 7f 5e cf a0 fc 40 40
       32.9848162118849 33.97365753282721
0001a0 4a 14 35 3f f0 00 41 40 6c 75 60 8a 3c d5 40 40
       34.007331753652196 33.66591005048653
0001b0 5c 20 8b 75 56 b5 40 40 ea cc 9d 52 52 bc 40 40
       33.41670102399141 33.47126229004955
0001c0 3c bb fa 52 21 db 40 40 e8 a3 71 46 5e e8 40 40
       33.71195447199577 33.81537704991189
0001d0 5a b8 62 97 b3 c0 40 40 dc 02 db 3b c9 56 40 40
       33.50548069305724 32.67801616853623
0001e0 64 c1 e2 0d 61 5d 3f 40 8a 39 02 55 3a ad 3d 40
       31.364762180195058 29.676671326678424
0001f0 da a3 11 0b ec c2 3b 40 62 8c 56 94 33 c1 39 40
       27.761414233976986 25.754693289880727
000200 20 cc 24 e7 83 bf 37 40 64 87 a0 75 73 ca 35 40
       23.748106428607684 21.790824271861666
000210 3a da 11 ba 3f e8 33 40 8a 36 9e 8c 58 1c 32 40
       19.907222394331463 18.110726154924613
000220 32 8f c4 25 f2 68 30 40 fc ca 2b 95 06 9f 2d 40
       16.409944878090023 14.810597097011389
000230 14 e2 3a a5 d6 a1 2a 40 4c 9f 03 dc 0b db 27 40
       13.316090739667779 11.927824855272455
000240 de e9 a8 90 79 4a 25 40 48 c6 86 3f 32 ef 22 40
       10.64545871793683 9.467180237962694
000250 fa 4f 80 0b aa c7 20 40 68 f4 a3 2e af a3 1d 40
       8.389969214833389 7.40984795451832
000260 88 87 87 d8 a4 16 1a 40 3a 6c 21 c2 dc e2 16 40
       6.522113211891231 5.72154525116917
000270 30 ee 0a 5c a7 02 14 40 94 b7 32 1d 27 70 11 40
       5.002591550986423 4.359524208279158
000280 4c e2 64 ed e5 4a 0e 40 b8 61 5d a0 64 39 0a 40
       3.7865713640606256 3.2780239609239423
000290 84 80 f9 27 66 a0 06 40 e2 5d 1f e0 f4 74 03 40
       2.8283198473946545 2.432107687909352
0002a0 e4 01 47 fe a1 ac 00 40 16 29 28 3e 2c 7b fc 3f
       2.0842933526439413 1.7800714900973325
0002b0 08 89 73 d5 36 3d f8 3f ee a7 4e 1e 45 8e f4 3f
       1.514944871706179 1.284733885181136
0002c0 6a c2 dc 54 87 5e f1 3f 00 56 cb 5e f0 3e ed 3f
       1.0855782809195724 0.9139329768610764
0002d0 be bb f4 a2 a7 87 e8 3f ba 04 02 c2 16 7f e4 3f
       0.7665594275221037 0.6405137814728257
0002e0 9c 23 b4 84 6c 0f e1 3f 34 dc b3 1c 07 4a dc 3f
       0.5331328002804301 0.4420182972239133
0002f0 9e 1d 18 b0 7f 5c d7 3f 46 f6 44 6d d6 36 d3 3f
       0.3650206775350514 0.3002220217784707
000300 fe 7c 8d 7a 46 7a cf 3f e2 5b b5 b8 76 ad c9 3f
       0.24591904624956124 0.2006061937233588
000310 ca 1a da 94 d7 db c4 3f 54 49 0e 76 6b df c0 3f
       0.16295904892122898 0.13181823028987572
000320 94 7f 38 17 36 2e bb 3f 34 d1 9f fc 71 cc b5 3f
       0.10617387835418263 0.08515083711228472
000330 2c 26 dd 2f 18 68 b1 3f 72 e4 48 8b 81 ad ab 3f
       0.0679946057181488 0.054058120968371606
000340 c2 4b 19 89 7e e8 a5 3f 57 7f 63 90 c5 43 a1 3f
       0.0427894155842732 0.03372018230015666
000350 72 4c 5a 63 16 17 9b 3f 98 b0 82 f3 b0 28 95 3f
       0.026455259145745598 0.020663037169172144
000360 4f 01 90 40 cf 73 90 3f 14 4d 9c c3 79 78 89 3f
       0.01606677848394727 0.012436820299206043
000370 a3 c4 33 06 95 a0 83 3f 4a 34 ee d9 c7 1c 7e 3f
       0.009583629848267277 0.007351666134934718
000380 ed 49 77 ef b3 fe 76 3f 20 d5 22 e1 eb 7a 71 3f
       0.005613997338019133 0.004267617610982627
000390 92 60 3f fc 8c 74 6a 3f 26 f6 5e dc a3 ed 63 3f
       0.0032294038410150628 0.002432651558563109
0003a0 86 c8 f8 0b f4 e2 5d 3f 00 d8 97 ae 44 37 0a be
       0.0018241294163883494 -7.629828688868531e-10
0003b0 00 93 42 28 35 8a 38 be 00 b9 6f 68 36 73 62 be
       -5.7136345690830196e-09 -3.4365894178869e-08
0003c0 00 95 3f 47 b0 10 89 be 00 cd 6e 10 1b c5 ae be
       -1.867502167344736e-07 -9.170157973997838e-07
0003d0 80 a1 01 62 1d ef d0 be c0 9c 00 09 02 a9 f0 be
       -4.037390255097798e-06 -1.588839273849725e-05
0003e0 00 e4 85 c6 4f 4d 0d bf 80 cc ed b2 a6 0f 27 bf
       -5.588912682958497e-05 -0.00017594251536543273
0003f0 40 07 2b 2e f8 43 40 bf 00 31 71 d0 44 96 54 bf
       -0.0004963838403784018 -0.0012565300001084467
000400 80 88 55 ed 92 65 67 bf 00 36 d1 28 c6 e1 77 bf
       -0.0028560514135032578 -0.005830549297639376
000410 00 b9 db 21 f8 e2 85 bf 80 57 8c 25 d1 fc 91 bf
       -0.010686815770409641 -0.017565982739220498
000420 00 6f 5f bd 9a 73 9a bf 00 0d cf cb 5c 53 a1 bf
       -0.025831620987317727 -0.03383913028621954
000430 00 d0 67 3c 34 10 a4 bf 00 41 5e 22 97 45 a4 bf
       -0.03918612706539193 -0.03959343237431945
000440 00 fc b3 92 2a a8 a7 bf 10 d8 37 30 f7 6c e2 bf
       -0.04620488205727469 -0.5758014623413619
000450 46 3b 37 a6 1a 8b 12 c0 24 7f 75 68 71 84 1d c0
       -4.635843846436563 -7.3793388673509845
000460 e0 5f 36 da 56 33 05 c0 e0 97 b1 ce eb 79 00 c0
       -2.6500680015414986 -2.059531798166958
000470 c0 d9 66 67 5d d9 03 c0 00 3d 2e dc 2c da da bf
       -2.481135185075999 -0.41956635953916077
000480 00 6d 89 0d 81 25 f6 3f 80 aa 53 62 16 fb ff 3f
       1.3841562775403986 1.998800644005911
000490 60 64 f6 c5 93 65 01 40 f0 93 97 e0 1c 77 01 40
       2.1745982614343546 2.1831605478532694
0004a0 40 dc 44 7c 3b 7f 00 40 e0 4b 16 e9 5d b9 fa 3f
       2.06212517819543 1.6702555756535205
0004b0 00 d6 79 3f fe 8f ce bf cc 7b 43 1b c9 2f 1c c0
       -0.23876932238970028 -7.046665597909804
0004c0 3c 0c d7 69 39 95 32 c0 5e df 3e 7c 07 8b 39 c0
       -18.58290730953398 -25.54308296713804
0004d0 62 70 e0 c7 7e e1 37 c0 6a 90 62 3d 12 b3 33 c0
       -23.88084077100246 -19.699497067035203
0004e0 60 ce e7 ba b3 0a 2f c0 08 2e b9 12 b1 47 24 c0
       -15.520902481838846 -10.140022835831601
0004f0 c0 98 da 7f 4c a0 11 c0 00 e7 35 be 37 e4 c1 bf
       -4.4065418221636605 -0.13977715289711767
000500 00 1e 10 42 e6 ea 07 40 d0 7e d8 58 b5 95 1a 40
       2.989696994892938 6.646199596608952
000510 d8 c6 77 5a 54 7f 27 40 3a 67 d8 42 9f d7 31 40
       11.748690440293487 17.842273881752796
000520 16 e7 79 d2 cf 1e 37 40 c2 e7 9e ad 72 0d 3a 40
       23.12035861469402 26.052531100554695
000530 9e b5 d3 6a 0e d4 3a 40 b4 44 1d c5 a4 74 3a 40
       26.828344990431667 26.455639190335845
000540 6a dd 5a 38 c8 96 39 40 dc ba a0 ba 94 79 38 40
       25.58899261682874 24.47492567466803
000550 83 ca ab 27 23 41 37 40 92 37 83 39 38 20 36 40
       23.254442672196557 22.125857920203607
000560 7c 61 b2 1d 65 5f 35 40 27 10 45 7b 5e 41 35 40
       21.372636657762527 21.255347923623187
000570 de a1 66 e7 a0 cb 35 40 52 34 67 4f bf a5 36 40
       21.795423948818886 22.647450411507016
000580 2a 23 d7 fe 62 43 37 40 d4 c5 e0 29 bc 3e 37 40
       23.263229300998468 23.245058648468174
000590 10 33 81 f9 92 8c 36 40 44 5e fa 94 b1 63 35 40
       22.549117654841268 21.389428435444884
0005a0 ec 52 85 49 2c 05 34 40 4e bc 8c ba fe 9b 32 40
       20.02020701889971 18.609355601653355
0005b0 7f 79 d6 df d6 3b 31 40 61 79 9b 5f e1 d6 2f 40
       17.233747472631418 15.91968821308973
0005c0 0d 6c b1 33 19 59 2d 40 0a c4 42 ea c5 fe 2a 40
       14.67402040043637 13.497603722238654
0005d0 a7 32 ae b7 66 c7 28 40 38 32 59 f4 17 b2 26 40
       12.389455547346484 11.347839008224682
0005e0 19 86 5f cf c1 bd 24 40 ba 7d 63 25 31 e9 22 40
       10.370619278345702 9.45545307960025
0005f0 e1 d1 cf 0c 28 33 21 40 fb b0 a2 83 d1 34 1f 40
       8.599914932602532 7.801580483250514
000600 27 35 99 55 78 3b 1c 40 21 f3 50 f6 e9 77 19 40
       7.058076226688434 6.367103432360438
000610 e5 8a cc be e0 e7 16 40 de 87 69 ff 29 89 14 40
       5.726443272814071 5.133949271026692
000620 f9 a6 0c 0c a2 59 12 40 04 b4 49 68 2f 57 10 40
       4.587532223007423 4.085141782282339
000630 00 2b f5 da 7b ff 0c 40 38 23 c3 13 75 a2 09 40
       3.624747953993733 3.2043248695303213
000640 07 4f 7d 05 20 93 06 40 2d e3 6e e9 49 cd 03 40
       2.821838419806116 2.4752386319127226
000650 57 eb 7d 4d b6 4c 01 40 a4 58 8c 90 40 1a fe 3f
       2.1624570898106117 1.8814092298903597
000660 3d 16 23 ea 7b 14 fa 3f da 50 81 a0 8b 7f f6 3f
       1.630000986669429 1.4061390180332212
000670 29 83 8b f2 ea 52 f3 3f 0d 22 a5 af 32 86 f0 3f
       1.207743594590463 1.0327631817946241
000680 44 d7 4e 91 52 22 ec 3f 75 d2 93 78 a5 d7 e7 3f
       0.8791897619291622 0.7450740199115687
000690 d4 b7 88 27 ff 1c e4 3f 7c 40 02 97 b4 e3 e0 3f
       0.6285396358632576 0.5277960729017788
0006a0 a9 c7 60 b8 ca 3b dc 3f 60 bb fb 48 1b 7d d7 3f
       0.44114940648716555 0.36701089980390655
0006b0 4b c0 19 51 26 73 d3 3f c6 8a fe 1c 9a 07 d0 3f
       0.3039031784055665 0.25046398955798244
0006c0 3f 7c 4b bd 1b 4c ca 3f 67 8b 2e 88 fd 77 c5 3f
       0.2054476427356082 0.16772431516173045
0006d0 af 22 ba 45 8a 71 c1 3f 0a f0 36 b6 0b 36 bc 3f
       0.1362774696792903 0.11019967268561018
0006e0 1b 8a 3c f6 32 b4 b6 3f c7 cf 64 f5 3a 2f b2 3f
       0.08868711959488744 0.07103317729052981
0006f0 3b 38 ef 91 75 fd ac 3f 41 11 61 5e 62 ff a6 3f
       0.05662124067713178 0.04491717722024414
000700 a8 9f 01 ef 05 28 a2 3f e8 48 07 4a e8 87 9c 3f
       0.03546160261686221 0.027862195509279625
000710 bb 96 02 9d 20 4f 96 3f 74 dc b4 b5 3b 5c 91 3f
       0.021786222060333964 0.016953404393657626
000720 4e 6a 46 b1 7f e3 8a 3f 2f 44 2f 26 28 b9 84 3f
       0.013129232022767525 0.010118783631613308
000730 8d a7 71 10 1a ca 7f 3f 17 1f 7b 6f e2 43 78 3f
       0.007761098683752976 0.005924114717067905
000740 ac 7a 8c 5b c4 6e 72 3f ee a2 eb bd 93 de 6b 3f
       0.004500166913912789 0.0034020314773112103
000750 18 36 16 f5 97 54 55 3e a8 bb cb 31 7b e5 62 3e
       1.986552373083111e-08 3.519730837851311e-08
000760 d0 e7 e6 8c 6f 94 70 3e 80 66 16 56 88 d4 7c 3e
       6.176466913520577e-08 1.074008842055777e-07
000770 58 87 3b be 0f da 88 3e 58 50 22 03 4f 40 95 3e
       1.8516035914852133e-07 3.1666764067320803e-07
000780 08 f7 75 65 6e 09 a2 3e c0 02 89 de 65 67 ae 3e
       5.375397433141427e-07 9.061067745633945e-07
000790 40 06 bb e1 d6 74 b9 3e b0 69 c9 29 c1 2d c5 3e
       1.5173199078708568e-06 2.52470120036299e-06
0007a0 b0 9f 74 0f 62 82 d1 3e 50 3f 5a 33 26 c4 dc 3e
       4.174544520986411e-06 6.858398412426376e-06
0007b0 b0 03 79 44 c2 78 e7 3e c0 6c 45 19 90 03 f3 3e
       1.119218553846828e-05 1.8133084794907895e-05
0007c0 c0 06 fb 2e 79 90 fe 3e 70 8e 8e 5b fc 64 09 3f
       2.9148434747444966e-05 4.843611845408997e-05
0007d0 d4 67 ca 45 da 68 6c 3f 6d 65 44 91 33 93 e4 3f
       0.0034679663788894453 0.6429689252137628
0007e0 12 3e 24 0b 0f 20 2e 40 37 e1 a7 b8 43 76 4d 40
       15.062614772962693 58.92394169041875
0007f0 eb 68 3c 7b b4 81 53 40 6e 09 99 ca a0 be 4c 40
       78.02664070987127 57.48928196403982
